neural_deinterlacing_2021/model10.pth (torch, 631157 bytes, 22 tensors)

weight f4 [64, 3, 7, 7]
-0.02391283 0.06631107 -0.015593708 -0.028404066 -0.02803008 0.037182957 0.03991289 -0.02510483
0.0046597593 0.04787179 0.050532207 0.0155468695 0.085481316 -0.07823176 -0.03342389 -0.034921322
-0.14910607 -0.0065743085 -0.0840016 -0.09672664 -0.066260874 0.011517186 0.16457279 0.29203698
0.26621825 0.19336158 0.12668768 0.05180953 -0.050732818 0.0040786583 0.025687708 0.12948264
0.06558899 0.012536413 0.009266548 -0.0011158612 -0.0811285 0.061613135 -0.019482445 0.054279286
0.07542315 -0.019240163 0.03446099 -0.05147958 -0.097766005 0.032062788 0.012105113 -0.045759343
0.014059873 0.045713514 -0.041261815 -0.03733566 -0.050474532 0.0038180123 -0.028082574 -0.022565678
0.0029976056 -0.0116857905 -0.15721941 -0.17162055 -0.13332039 -0.024739817 0.08570885 -0.0242944
-0.12543122 -0.14238496 -0.00778079 -0.059878033 -0.09042907 0.000841897 -0.065903485 -0.15729427
-0.22130783 -0.52653426 -0.4249965 -0.11576577 -0.12491215 -0.010014477 -0.16015843 -0.17822105
-0.14887959 -0.088106 -0.08560435 -0.014131954 0.0020475294 -0.03988333 -0.105845295 -0.2101028
-0.05428018 0.014101669 0.04509997 -0.019851096 0.04770701 -0.053877894 0.0015770412 0.012420754
-0.025076818 0.00081811036 -0.025399122 0.033704396 -0.026853204 0.060585916 0.073568225 0.03820286
-0.049199864 -0.036891855 0.026957253 0.14073911 -0.023327881 0.06559446 0.025649982 -0.0061662532
0.08326258 0.14352119 0.23521605 0.19510002 0.06895403 0.105610505 0.109051906 0.07748293
0.051225137 0.23806931 0.1591487 -0.09534389 -0.04225665 0.039651196 0.072435685 0.007851121
0.11548582 0.17635155 0.010316626 0.0011809882 -0.023323705 0.02588678 0.015893571 0.039671503
0.080049805 0.003976124 0.05349231 0.019783521 -0.018951962 0.06930287 0.04628069 -0.011443003
0.03309502 0.027723972 0.025029656 -0.6269137 -0.45980793 -0.5733589 -0.7246726 -0.20839791
0.18790244 -0.13751137 -0.6108993 -0.31394497 -0.50687736 -0.8524211 -0.062311925 0.12066168
-0.27319598 0.014679494 0.11926686 0.14747848 0.3351419 -0.515267 -0.14668564 -0.4604891
-0.056781072 0.08424669 -0.015970528 -0.03294489 -0.5394497 -0.39429903 -0.7815807 -0.02167001
-0.061338622 0.11416031 -0.15288329 -1.1013191 -0.5681542 -0.8042173 0.0048144753 -0.012135223
-0.072196305 0.08412614 -0.017282357 0.24855922 0.04813366 0.026968649 -0.01979776 -0.021800008
0.21177194 -0.19131303 0.20537771 0.05637386 -1.0951599 -0.78358746 -1.0136439 -1.2364546
-0.63198245 -0.44099054 -0.34662625 -0.9612456 -0.5804226 -0.73856556 -1.0765692 -0.6212719
-0.4059736 -0.29251754 -0.0002903746 -0.06049937 -0.06812744 0.074680865 -1.1680465 -1.199513
-0.9689461 0.1247614 0.11693803 0.14778528 0.14789687 -0.896061 -0.9190648 -0.6894428
-0.115640424 -0.11496953 0.039971672 -0.26112926 -1.0309323 -1.2876506 -0.92342836 -0.039031606
-0.050418627 -0.055763178 0.11229303 -0.71798193 -0.67670095 -0.32153314 0.015734056 0.114638135
-0.040351074 0.051580597 -0.49603623 -0.67633367 -0.4698175 -0.49707913 -0.24569297 -0.5062479
-0.8902022 -0.56758827 0.0066206204 -0.074746266 -0.14884868 0.17327003 -0.18344669 -0.28450567
00000000: d7e4 c3bc 19ce 873d c07c 7fbc a5af e8bc
00000010: 579f e5bc 284d 183d b37b 233d a5a8 cdbc
00000020: e5b0 983b 3615 443d dcfa 4e3d 4cb8 7e3c
00000030: d410 af3d f937 a0bd 7de7 08bd a909 0fbd
00000040: 43af 18be 4c6d d7bb 0809 acbd 9e18 c6bd
00000050: c8b3 87bd 94b2 3c3c c585 283e df85 953e
00000060: c24d 883e 9400 463e 6aba 013e 3b36 543d
00000070: 37cd 4fbd 44a6 853b 076f d23c 1997 043e
00000080: 8553 863d 8765 4d3c b8d2 173c 1742 92ba
00000090: b326 a6bd 0e5e 7c3d a699 9fbc f553 5e3d
000000a0: 7477 9a3d 8c9d 9dbc f826 0d3d 41dc 52bd
000000b0: 8b39 c8bd 4554 033d 8654 463c 266e 3bbd
000000c0: 625b 663c 183e 3b3d 2602 29bd 47ed 18bd
000000d0: 62be 4ebd 9e37 7a3b 6d0d e6bc a8db b8bc
000000e0: 7a73 443b c275 3fbc 20fe 20be 4cbd 2fbe
000000f0: 2485 08be 28ab cabc 1f88 af3d 0d05 c7bc
00000100: 0b71 00be 5dcd 11be fff5 febb ab42 75bd
00000110: e032 b9bd c0b2 5c3a 68f8 86bd c011 21be
00000120: 859e 62be f3ca 06bf 2499 d9be 9b16 edbd
00000130: f1d1 ffbd c313 24bc 9200 24be 947f 36be
00000140: e473 18be eb70 b4bd 5551 afbd b689 67bc
00000150: d82f 063b b45c 23bd 6bc5 d8bd 3025 57be
00000160: e554 5ebd b00a 673c bfba 383d c49e a2bc
00000170: 6d68 433d 11af 5cbd b9b4 ce3a 6b80 4b3c
00000180: e66d cdbc 7576 563a d211 d0bc 9f0d 0a3d
00000190: 40fb dbbc f028 783d f0aa 963d 9a7a 1c3d
000001a0: cc85 49bd ea1b 17bd 75d5 dc3c ea1d 103e
000001b0: 1d1a bfbc 6356 863d e91f d23c 480e cabb
000001c0: 9285 aa3d 38f7 123e 7adc 703e 4dc8 473e
000001d0: c537 8d3d 524a d83d 9b56 df3d 5faf 9e3d
000001e0: 73d1 513d 71c8 733e e0f7 223e a843 c3bd
000001f0: 4f15 2dbd 4b69 223d 2959 943d fda1 003c
00000200: d483 ec3d 8095 343e 1107 293c 63cb 9a3a
00000210: 5b11 bfbc 8310 d43c 3c33 823c 967e 223d
00000220: 27f1 a33d 254a 823b c11a 5b3d 0d11 a23c
00000230: 2541 9bbc aaee 8d3d d290 3d3d 6f7b 3bbc
00000240: a58e 073d 621d e33c fe0a cd3c 6b7d 20bf
00000250: f26b ebbe a6c7 12bf 2584 39bf 4366 55be
00000260: 7f69 403e c8cf 0cbe e663 1cbf 65bd a0be
00000270: b7c2 01bf 4538 5abf ca3a 7fbd 791d f73d
00000280: 58e0 8bbe 4382 703c 2f42 f43d 9904 173e
00000290: b897 ab3e 8ae8 03bf c334 16be 3ac5 ebbe
000002a0: 4593 68bd 8789 ac3d a0d4 82bc 39f1 06bd
000002b0: 6019 0abf 90e1 c9be ac15 48bf 4e85 b1bc
000002c0: 353e 7bbd e1cc e93d 708d 1cbe 06f8 8cbf
000002d0: 8e72 11bf 2fe1 4dbf bfc2 9d3b d0d2 46bc
000002e0: a8db 93bd 534a ac3d bb93 8dbc 4f86 7e3e
000002f0: cd27 453d 5bed dc3c e92e a2bc ee95 b2bc
00000300: beda 583e 90e7 43be 894e 523e 47e8 663d
00000310: 332e 8cbf 3099 48bf 15bf 81bf 2544 9ebf
00000320: 9ac9 21bf 83c9 e1be ff78 b1be 3114 76bf
00000330: 9396 14bf a212 3dbf 05cd 89bf ad0b 1fbf
00000340: c6db cfbe dcc4 95be 6b3d 98b9 30ce 77bd
00000350: 6686 8bbd 48f2 983d 8c82 95bf a489 99bf
00000360: da0c 78bf e882 ff3d 357d ef3d 0655 173e
00000370: 4772 173e 4164 65bf d547 6bbf 537f 30bf
00000380: e3d4 ecbd 2575 ebbd 56b9 233d bcb2 85be
00000390: 97f5 83bf bcd1 a4bf cd65 6cbf 9bdf 1fbd
000003a0: c383 4ebd ee67 64bd e3f9 e53d aacd 37bf
000003b0: 463c 2dbf fe9f a4be b5e4 803c 66c7 ea3d
000003c0: 2b47 25bd 2d46 533d 76f8 fdbe 3424 2dbf
000003d0: eb8b f0be 2881 febe f096 7bbe 7699 01bf
000003e0: 4be4 63bf 774d 11bf caf1 d83b 9214 99bd
000003f0: ca6b 18be b36d 313e 73d9 3bbe baaa 91be

bias f4 [64]
-0.182277 0.12420644 -0.103816375 -0.07458211 -0.33447966 -0.22802535 0.0316209 -0.009532483
-0.045833733 0.049227968 0.08617403 0.07680238 0.008245639 0.06632287 0.09536395 0.055767044
-0.2389117 0.11473933 0.05689972 -0.13532306 0.11461445 0.09788456 0.07424134 0.11177173
0.076473355 -0.12032953 0.009616389 -0.4629088 0.055932563 0.08865104 -0.15148768 -0.012906764
-0.071397685 0.13477881 0.09084153 0.077475354 -0.21726942 0.01567901 0.1638946 0.0457054
0.02812939 -0.53160715 0.016055623 0.03155477 0.1962339 -0.17421931 0.10443835 0.17409664
-0.051709488 0.47064677 0.055587545 -0.26984036 0.13575345 0.21058169 0.21370834 0.09829854
0.005046699 -0.072172694 0.093194544 -0.07839935 -0.07724289 -0.007196595 -0.09633158 -0.3556268
00000000: d2a6 3abe f25f fe3d ae9d d4bd 81be 98bd
00000010: eb40 abbe 7a7f 69be eb84 013d 222e 1cbc
00000020: 27bc 3bbd 44a3 493d 037c b03d 914a 9d3d
00000030: b718 073c 49d4 873d 2d4e c33d fc6b 643d
00000040: 45a5 74be 74fc ea3d ae0f 693d 2192 0abe
00000050: fbba ea3d b377 c83d d80b 983d 94e8 e43d
00000060: 109e 9c3d 546f f6bd 0f8e 1d3c 6202 edbe
00000070: 8b19 653d ad8e b53d 961f 1bbe e476 53bc
00000080: f338 92bd 7503 0a3e 200b ba3d 66ab 9e3d
00000090: e07b 5ebe 4471 803c fcd3 273e 9635 3b3d
000000a0: 9b6f e63c 6817 08bf 1587 833c 933f 013d
000000b0: 8af1 483e 8c66 32be c6e3 d53d 6446 323e
000000c0: 54cd 53bd 9df8 f03e c4af 633d 8428 8abe
000000d0: f402 0b3e baa2 573e 5cd6 5a3e bf50 c93d
000000e0: c85e a53b 47cf 93bd c8dc be3d d78f a0bd
000000f0: 8531 9ebd 6ad1 ebbb 7e49 c5bd b714 b6be

weight f4 [64, 64, 3, 3]
-0.028481424 0.09640994 -0.026076226 0.00073091575 -0.008896316 -0.12710796 -0.117673956 0.1492421
-0.21600698 -0.029115928 -0.14436428 -0.15241091 -0.035099152 -0.38889527 -0.08481935 -0.0059894472
-0.3474827 -0.04987972 -0.09254128 -0.105454415 -0.12421288 -0.056703903 -0.12993036 -0.0579187
0.263697 0.26218086 0.036344923 -0.122669786 0.12878644 -0.08513768 -0.35474247 -0.4840856
-0.2490961 0.054115765 -0.082564354 -0.2347697 -0.097318366 -0.09987813 -0.3307763 0.055490345
-0.086788304 -0.18680215 -0.2746118 -0.23154657 -0.2202028 0.0037196875 0.025261274 -0.01992561
-0.022456177 0.058921523 -0.018411756 -0.056395963 0.011608213 -0.040014062 -0.003090861 -0.012230673
-0.00804929 -0.042303696 -0.014032504 -0.024975248 -0.050055895 -0.039319675 -0.050394755 0.03389132
-0.054985613 0.009599311 -0.043486934 0.04939796 -0.06054237 0.004369601 0.2769675 -0.048313934
-0.10562553 -0.039335344 0.08689908 -0.08178692 -0.09216607 0.051840592 -0.10797304 -0.0442087
-0.019812694 0.21441278 -0.024093231 -0.03406569 0.1513831 -0.03754907 0.022585018 0.39460656
-0.021588298 0.040739212 0.057340566 0.35881695 -0.0052215983 -0.049697768 0.13871789 -0.0069707003
-0.0828964 0.14524981 -0.06431164 -0.022078503 0.0077302437 -0.024300113 0.18619661 -0.071860425
0.0062040603 -0.002550953 -0.00818292 0.003038985 0.044459436 -0.14943814 -0.06816396 -0.08249761
-0.061099153 0.03044805 -0.024702907 0.029428666 -0.029018752 -0.031442985 -0.04864805 0.0024181867
-0.014486041 0.018956183 0.026101967 0.007296951 0.032778557 0.037216052 -0.1017184 -0.1641227
0.07091278 -0.0788153 0.06691399 -0.04522029 0.022740455 0.08067206 0.07427062 0.0002644659
-0.0076646376 -0.0792817 -0.0093218535 0.06987206 -0.030239511 -0.014652067 0.0681658 0.0071048075
-0.021191442 0.01296661 -0.029006727 0.041862488 0.07680014 0.04985084 -0.08382527 0.0322538
0.013431587 0.020578908 -0.04523144 0.017457554 -0.013607801 -0.045626596 -0.023047568 -0.03906189
-0.011582619 -0.019930478 -0.009394135 -0.045387946 -0.034429636 0.02869971 -0.27900138 -0.119884714
0.09284766 0.1352884 -0.0064047207 0.008678182 -0.004087399 -0.031070434 0.11089448 0.05113749
0.10213308 0.0023193592 0.04341071 0.053270202 0.028343774 -0.046251778 0.023763994 -0.016270177
-0.09723071 -0.072202586 0.120112665 0.2109608 0.031267192 0.0010329399 0.009529034 0.010984004
0.19939232 0.07862504 -0.057811484 -0.012826378 -0.062178038 0.014389423 -0.14246418 0.0068977224
-0.003253947 -0.017067177 -0.109653845 0.028178925 -0.040069737 0.04836296 0.016896784 0.0013438348
-0.039879303 -0.014741952 0.0589322 0.051314857 0.03455636 -0.012939413 -0.026686577 0.021818016
0.0077565815 -0.2620387 -0.12803552 -0.11798366 -0.2821961 -0.29980877 0.1234582 -0.17636156
-0.28056523 -0.05281568 -0.045924276 -0.081994385 -0.068054914 0.003925599 -0.11281538 0.0050664367
-0.025919084 -0.078559995 -0.06428762 -0.11468583 -0.007836742 -0.28674397 0.020457448 -0.115539536
-0.039247714 0.08837496 -0.040351957 0.06303634 0.09791757 0.08277212 -0.04803837 -0.10777601
0.045525584 -0.027512882 -0.042561743 -0.057900082 -0.029836657 0.053287137 -0.028987288 0.0007990266
00000000: e051 e9bc 9372 c53d cf9d d5bc ed9a 3f3a
00000010: dbc1 11bc 9728 02be 0bff f0bd ecd2 183e
00000020: ef30 5dbe 8784 eebc 3bd4 13be 9b11 1cbe
00000030: 21c4 0fbd 481d c7be c4b5 adbd 2043 c4bb
00000040: 41e9 b1be ad4e 4cbd 4886 bdbd 7cf8 d7bd
00000050: 5363 febd 5a42 68bd 770c 05be 293c 6dbd
00000060: 4b03 873e 923c 863e 6ade 143d 4c3a fbbd
00000070: 98e0 033e aa5c aebd cea0 b5be 11da f7be
00000080: 0c13 7fbe 7ea8 5d3d 8017 a9bd 7867 70be
00000090: da4e c7bd e88c ccbd 835b a9be d849 633d
000000a0: 11be b1bd 1049 3fbe eb99 8cbe 8b1a 6dbe
000000b0: d87c 61be 00c6 733b bbf0 ce3c 083b a3bc
000000c0: 04f6 b7bc b257 713d 40d4 96bc 74ff 66bd
000000d0: 6030 3e3c c9e5 23bd 0b90 4abb 2963 48bc
000000e0: 2be1 03bc a446 2dbd 96e8 65bc e498 ccbc
000000f0: 6907 4dbd ab0d 21bd bb6a 4ebd a0d1 0a3d
00000100: 9838 61bd 6e46 1d3c 5b1f 32bd 8455 4a3d
00000110: 47fb 77bd df2e 8f3b afce 8d3e d5e4 45bd
00000120: 3352 d8bd 191e 21bd 25f8 b13d e77f a7bd
00000130: 91c1 bcbd cd56 543d f820 ddbd 2f14 35bd
00000140: 3b4e a2bc 068f 5b3e 2b5f c5bc 7788 0bbd
00000150: 2c04 1b3e 0ecd 19bd 3704 b93c df09 ca3e
00000160: f1d9 b0bc 29de 263d f1dd 6a3d dbb6 b73e
00000170: f119 abbb e38f 4bbd 100c 0e3e 796a e4bb
00000180: 96c5 a9bd 5ebc 143e d2b5 83bd fadd b4bc
00000190: fc4d fd3b 0811 c7bc 53aa 3e3e 8f2b 93bd
000001a0: 6e4b cb3b e42d 27bb a711 06bc b529 473b
000001b0: 191b 363d 5006 19be 8c99 8bbd 82f4 a8bd
000001c0: 1b43 7abd 306e f93c c05d cabc 6314 f13c
000001d0: bcb8 edbc 5cca 00bd 2d43 47bd 717a 1e3b
000001e0: dc56 6dbc ff49 9b3c cbd3 d53c 431b ef3b
000001f0: cf42 063d dc6f 183d bd51 d0bd c80f 28be
00000200: b83a 913d ea69 a1bd 340a 893d e938 39bd
00000210: 314a ba3c 6537 a53d 321b 983d 03a8 8a39
00000220: a427 fbbb 725e a2bd b0ba 18bc 1519 8f3d
00000230: dab8 f7bc 390f 70bc 839a 8b3d 72cf e83b
00000240: ad99 adbc e771 543c 849f edbc 0078 2b3d
00000250: 6449 9d3d 6530 4c3d 95ac abbd 901c 043d
00000260: 2910 5c3c 1995 a83c 9a44 39bd 2503 8f3c
00000270: 41f3 5ebc f4e2 3abd 41ce bcbc 5cff 1fbd
00000280: 06c5 3dbc 3e45 a3bc dce9 19bc b6e8 39bd
00000290: 1706 0dbd a71b eb3c 45d9 8ebe 1e86 f5bd
000002a0: ea26 be3d 0b89 0a3e b1de d1bb ef2e 0e3c
000002b0: 97ef 85bb 6c87 febc a51c e33d 8b75 513d
000002c0: 262b d13d 6400 183b 6ecf 313d db31 5a3d
000002d0: 3431 e83c 8172 3dbd b5ac c23c 0949 85bc
000002e0: e520 c7bd f3de 93bd a1fd f53d 1c06 583e
000002f0: 0712 003d b663 873a aa1f 1c3c 40f6 333c
00000300: 802d 4c3e 2a06 a13d bccb 6cbd bb25 52bc
00000310: 66ae 7ebd 9dc1 6b3c 21e2 11be 4a06 e23b
00000320: 2c40 55bb 77d0 8bbc 3292 e0bd 7dd7 e63c
00000330: 2a20 24bd 3d18 463d 206b 8a3c 9d23 b03a
00000340: 7b58 23bd 3a88 71bc e462 713d 872f 523d
00000350: f88a 0d3d d5ff 53bc cf9d dabc b2bb b23c
00000360: ec2a fe3b f029 86be be1b 03be 6ba1 f1bd
00000370: 027c 90be 8980 99be a7d7 fc3d 2098 34be
00000380: 3fa6 8fbe 4155 58bd 181b 3cbd acec a7bd
00000390: 6060 8bbd 50a2 803b c00b e7bd 5a04 a63b
000003a0: 4254 d4bc 10e4 a0bd 3aa9 83bd 68e0 eabd
000003b0: ae65 00bc 1bd0 92be 6196 a73c fe9f ecbd
000003c0: 36c2 20bd eefd b43d 1848 25bd 3219 813d
000003d0: 0289 c83d 6e84 a93d e2c3 44bd abb9 dcbd
000003e0: 0979 3a3d b262 e1bc 3955 2ebd a328 6dbd
000003f0: 016c f4bc 9d43 5a3d c076 edbc c475 513a

bias f4 [64]
-0.280172 0.056751605 0.009747615 0.0382846 -0.24956648 -0.15043274 -0.0067877476 -0.024187548
-0.07445684 0.19321655 0.015708726 0.043394543 0.097033255 0.14187051 -0.08130339 -0.18029672
-0.06544149 -0.013403653 -0.0019998946 -0.026398791 -0.11204196 -0.095665224 -0.08388496 -0.0031527868
0.038735926 -0.058735266 -0.0777915 -0.12802593 -0.10953396 -0.048834182 -0.026656203 0.12556516
0.034542795 -0.205422 -0.061961416 0.010727212 -0.025916709 -0.04360795 0.1016706 -0.0050747865
-0.01280657 -0.124905735 -0.064865544 0.17510857 -0.51397556 -0.33962342 0.3389906 0.10074569
-0.06729328 -0.34386823 -0.15412302 -0.19944316 0.092714615 -0.10938933 -0.080665395 0.3292663
0.105714 -0.1022445 -0.08040398 -0.16422899 -0.10067266 -0.06179882 -0.044851996 -0.024093417
00000000: b472 8fbe 5f74 683d 76b4 1f3c 50d0 1c3d
00000010: 5b8e 7fbe 0a0b 1abe c16b debb f724 c6bc
00000020: d47c 98bd 8fda 453e 96af 803c 7abe 313d
00000030: 5fb9 c63d 8146 113e 6482 a6bd b49f 38be
00000040: 3006 86bd ff9a 5bbc aa10 03bb 4742 d8bc
00000050: 4176 e5bd 21ec c3bd e1cb abbd fc9e 4ebb
00000060: 90a9 1e3d 6494 70bd 2651 9fbd 3b19 03be
00000070: 5753 e0bd 5a06 48bd 1c5e dabc 2794 003e
00000080: bf7c 0d3d 255a 52be 41cb 7dbd 30c1 2f3c
00000090: 474f d4bc 409e 32bd ad38 d03d 654a a6bb
000000a0: a6d2 51bc 94ce ffbd 3ad8 84bd a94f 333e
000000b0: e793 03bf 1fe3 adbe 2d90 ad3e c253 ce3d
000000c0: 0fd1 89bd 7f0f b0be 6dd2 1dbe d43a 4cbe
000000d0: 29e1 bd3d 8307 e0bd e633 a5bd 9895 a83e
000000e0: 9580 d83d 9065 d1bd d8aa a4bd a52b 28be
000000f0: 782d cebd c220 7dbd bab6 37bd 8f5f c5bc

weight f4 [32, 64, 3, 3]
-0.015909934 -0.10757744 -0.036357574 -0.06611126 -0.10576058 -0.018410994 0.08198025 0.0028138685
0.23649897 -0.05252449 0.13404845 0.07652788 -0.15870112 -0.12230662 -0.033363603 0.056318842
0.11579107 0.024624417 0.012640819 0.016268516 -0.023697726 -0.036927223 -0.0058832257 0.008901663
-0.016478881 -0.051893942 -0.016774613 0.10050168 -0.01583438 0.13642868 -0.026006417 -0.03655879
-0.071507476 0.10713198 0.123773776 0.018283568 0.12359201 -0.06426958 -0.099871986 -0.04985645
-0.08332848 -0.08378055 0.1276469 0.057728905 0.06859459 0.052961692 -0.018689979 0.09507717
-0.25706515 -0.17637964 -0.13065907 -0.071015425 -0.10895878 0.0067709046 0.09709979 0.13838664
-0.14183305 -0.054709546 0.12511344 0.07248095 -0.026721057 -0.16959251 -0.07100684 -0.027882824
-0.047569927 -0.04517173 -0.047994148 -0.027796267 0.0042169946 0.019134847 -0.0052518756 0.01769438
0.17251225 0.04246832 0.049466897 -0.04822924 -0.05499682 0.01279491 0.026131451 0.020217096
0.05261724 -0.08558666 0.017089432 0.03601741 -0.07766108 -0.042477667 0.08854091 0.052312214
-0.10993511 -0.03153284 -0.08306638 0.04697239 -0.057949632 -0.010340136 0.19653371 0.071426146
-0.14762235 0.113324486 0.33689642 0.16780457 -0.31106392 -0.13404757 0.19680683 0.037640512
0.16182369 0.013021161 -0.07166426 -0.07100899 -0.0032147567 0.06678015 -0.04370494 -0.027696645
-0.025197309 0.053479735 0.13841048 0.07077983 -0.048300143 0.21863973 0.28387964 -0.26232457
-0.21048193 -0.059737545 0.05684421 -0.1007643 -0.009464054 0.14095192 0.012958129 0.066069864
0.0018887701 0.0008479993 -0.02933253 -0.059123363 -0.0032308467 0.019078271 0.031607684 0.17193608
0.082598165 0.0025851277 -0.032752004 0.06395174 -0.16239187 0.05749688 0.030836325 -0.009355644
0.030168971 0.008878502 -0.005233763 0.047214787 0.056110136 0.06311618 0.038721915 0.021893581
0.015228098 -0.0030385684 0.007120816 0.039487675 -0.0063242256 -0.030160543 0.18020874 -0.17505975
-0.13158046 0.040040754 -0.08781669 -0.051268946 0.020824611 -0.056991536 0.19945891 0.16882034
-0.17229311 -0.036186107 -0.022338523 -0.042721614 0.03982643 -0.08697554 0.032609466 -0.056578483
-0.07230038 -0.1511113 0.017794505 -0.08912817 -0.055044483 -0.05084278 0.005457535 -0.018904883
0.012545004 -0.029145442 -0.014062739 0.008203222 -0.027601225 0.24402718 -0.17866749 0.55980957
0.15088418 0.058140703 0.05701441 -0.03067441 -0.12972228 -0.13859747 -0.04018131 -0.010411858
0.021648403 -0.064312086 -0.0606581 -0.20865025 0.26313522 0.33085445 0.13035816 0.04956947
0.049743973 -0.07684877 0.118279316 0.038875274 -0.070920445 -0.20271322 -0.034619026 -0.010334429
0.0035109327 -0.045379844 0.015860131 -0.20477779 0.17864874 -0.027333727 -0.114503026 -0.0048641413
0.26214728 0.02143514 0.011218087 -0.0018946086 -0.004001678 -0.005794977 0.022638679 0.021025939
-0.010395527 0.020576788 -0.10136079 0.210142 -0.012073629 -0.007262311 -0.3636631 -0.082529046
-0.24270406 -0.06588422 0.1887563 -0.06525741 -0.0543192 -0.033984434 0.016545298 0.010815714
-0.0622956 -0.004790436 -0.05327576 0.0052488153 -0.2543973 0.05217611 -0.018621244 0.017182857
00000000: 8d55 82bc 9051 dcbd aeeb 14bd 5765 87bd
00000010: 0199 d8bd a7d2 96bc 43e5 a73d e168 383b
00000020: c92c 723e eb23 57bd ff43 093e a6ba 9c3d
00000030: 8c82 22be e57b fabd 46a8 08bd 96ae 663d
00000040: de23 ed3d 25b9 c93c 701b 4f3c 8d45 853c
00000050: bc21 c2bc 0041 17bd 13c8 c0bb 48d8 113c
00000060: b8fe 86bc be8e 54bd ea6a 89bc d3d3 cd3d
00000070: 1ab7 81bc f6b3 0b3e 690b d5bc abbe 15bd
00000080: 8372 92bd 0368 db3d 1b7d fd3d 6cc7 953c
00000090: cf1d fd3d c59f 83bd af89 ccbd 4736 4cbd
000000a0: 1fa8 aabd 2395 abbd deb5 023e 2575 6c3d
000000b0: 527b 8c3d 5cee 583d ba1b 99bc d2b7 c23d
000000c0: 0b9e 83be dd9c 34be 7ecb 05be 8970 91bd
000000d0: c825 dfbd 77de dd3b 41dc c63d 3ab5 0d3e
000000e0: af3c 11be 1e17 60bd bd1d 003e e470 943d
000000f0: 1ee6 dabc a9a9 2dbe 096c 91bd 856a e4bc
00000100: afd8 42bd fe05 39bd 8395 44bd ffb4 e3bc
00000110: b72e 8a3b afc0 9c3c ed17 acbb cef3 903c
00000120: 0da7 303e 43f3 2d3d cd9d 4a3d 068c 45bd
00000130: 5844 61bd bea1 513c a011 d63c 539e a53c
00000140: 2d85 573d 0f48 afbd 23ff 8b3c fe86 133d
00000150: c60c 9fbd 10fd 2dbd f054 b53d 5545 563d
00000160: a925 e1bd 9428 01bd b51e aabd 1f66 403d
00000170: 985c 6dbd ac69 29bc 2240 493e df47 923d
00000180: 502a 17be ab16 e83d b07d ac3e f6d4 2b3e
00000190: c543 9fbe c443 09be bb87 493e f02c 1a3d
000001a0: 1cb5 253e b556 553c b6c4 92bd 296d 91bd
000001b0: abae 52bb 08c4 883d f303 33bd 13e4 e2bc
000001c0: 966a cebc 910d 5b3d 7abb 0d3e 04f5 903d
000001d0: 5fd6 45bd 18e3 5f3e ac58 913e 684f 86be
000001e0: 9388 57be 5baf 74bd 79d5 683d 835d cebd
000001f0: 1f0f 1bbc b355 103e 554e 543c a34f 873d
00000200: 9c90 f73a 454c 5e3a c64a f0bc 572b 72bd
00000210: 9dbc 53bb 094a 9c3c 0f77 013d 0310 303e
00000220: 3a29 a93d 3f6b 293b f726 06bd 21f9 823d
00000230: 0e4a 26be d981 6b3d 769c fc3c 6a48 19bc
00000240: eb24 f73c 2377 113c fc7f abbb 4b64 413d
00000250: bed3 653d 0e43 813d df9a 1e3d 2b5a b33c
00000260: 467f 793c b822 47bb bc55 e93b d4bd 213d
00000270: 733b cfbb 3e13 f7bc a488 383e dd42 33be
00000280: 07bd 06be c601 243d 3dd9 b3bd 63ff 51bd
00000290: 6098 aa3c f56f 69bd f53e 4c3e 3ddf 2c3e
000002a0: 9b6d 30be e237 14bd 47ff b6bc dcfc 2ebd
000002b0: 0a21 233d 3b20 b2bd 8191 053d d7be 67bd
000002c0: 3912 94bd ecbc 1abe c8c5 913c d488 b6bd
000002d0: 5376 61bd 8540 50bd 1fd5 b23b 6ade 9abc
000002e0: 8f89 4d3c 6cc2 eebc 6767 66bc cf66 063c
000002f0: f71b e2bc 43e2 793e 9cf4 36be ae4f 0f3f
00000300: 6281 1a3e f224 6e3d f187 693d e648 fbbc
00000310: ebd5 04be 7fec 0dbe 2895 24bd 7f96 2abc
00000320: fe57 b13c 0eb6 83bd a174 78bd 69a8 55be
00000330: a9b9 863e c165 a93e 9c7c 053e 5b09 4b3d
00000340: 56c0 4b3d e362 9dbd 6d3c f23d ae3b 1f3d
00000350: bd3e 91bd 0e94 4fbe aecc 0dbd bd51 29bc
00000360: ad17 663b 37e0 39bd 1bed 813c 45b1 51be
00000370: b2ef 363e fbea dfbc 9080 eabd 6063 9fbb
00000380: 2b38 863e bf98 af3c 11cc 373c 8454 f8ba
00000390: 8220 83bb cae3 bdbb c074 b93c 973e ac3c
000003a0: 0052 2abc a790 a83c 3f96 cfbd 772f 573e
000003b0: 78d0 45bc aef8 edbb 0d32 babe fd04 a9bd
000003c0: 6a87 78be 4eee 86bd 5549 413e ada5 85bd
000003d0: cf7d 5ebd 4333 0bbd 018a 873c 6434 313c
000003e0: ac29 7fbd 17f9 9cbb af37 5abd 41fe ab3b
000003f0: 5d40 82be 9eb6 553d 948b 98bc 10c3 8c3c

bias f4 [32]
-0.0036651816 -0.049023606 -0.0143266795 -0.0026851976 -0.005845418 -0.046669487 -0.0008347009 -0.27062824
0.01150818 -0.0010453726 0.0066164443 0.0039519886 -0.012319006 0.008261628 0.0030094895 0.02845712
0.004300464 -0.020000232 -0.0050571486 0.0029025308 -0.018129814 -0.0064712437 -0.004722645 0.10902213
-0.006766673 -0.31191155 0.044517267 0.008612984 -0.0075660674 0.013020782 0.0032054158 -0.0029686415
00000000: 8b33 70bb facc 48bd 73ba 6abc 24fa 2fbb
00000010: ec8a bfbb 8128 3fbd d4cf 5aba c98f 8abe
00000020: ce8c 3c3c e204 89ba c2ce d83b af7f 813b
00000030: a8d5 49bc c85b 073c db3a 453b e81e e93c
00000040: e8ea 8c3b 87d7 a3bc 70b6 a5bb 6338 3e3b
00000050: fa84 94bc ba0c d4bb 6bc0 9abb ff46 df3d
00000060: f8ba ddbb dfb2 9fbe bd57 363d 791d 0d3c
00000070: c6ec f7bb 1e55 553c f411 523b 8a8d 42bb

weight f4 [32, 32, 3, 3]
0.1371531 0.007343687 -0.05917372 0.07015078 0.06423591 -0.18317842 -0.037148114 -0.074746035
0.024343006 -0.108294435 -0.20902887 -0.13505842 -0.21419975 -0.21324165 -0.18376657 -0.06834959
-0.053788364 -0.11538047 0.058861904 -0.11634061 0.12788557 0.05077375 -0.12362472 0.02669137
0.04838564 -0.06362372 -0.018138938 -0.053158645 -0.015804118 -0.05886261 -0.030184349 0.114572845
-0.09581482 0.016643735 0.030255135 0.07422559 0.02365661 0.092744626 -0.064650595 -0.049099427
0.106497675 -0.07204904 0.050201233 -0.08882083 -0.022720205 0.035177544 -0.08302748 -0.10830383
0.022357704 -0.008479553 -0.036432024 0.11579911 -0.044910546 0.010612258 0.16355325 0.039302137
-0.18101057 -0.25674403 0.27210706 -0.07626691 -0.140309 0.13190913 0.016631918 -0.050940644
-0.14586943 -0.058266096 0.016662287 0.054825515 0.045024246 -0.024455415 -0.0015900872 -0.040482182
-0.05186758 -0.06031196 0.09483257 0.13963147 -0.23680027 0.10069164 -0.086454555 0.041772038
0.014107817 0.12550507 -0.028078847 0.046482448 -0.024022892 -0.05993273 0.07693757 0.049841035
-0.13584596 -0.012531715 0.3958689 -0.16299047 -0.020216638 0.14433296 0.03934225 -0.23540227
0.108798295 -0.3174492 0.038169544 0.109306395 -0.1170675 0.054075513 0.06809651 0.042515684
-0.084102534 0.0006214761 -0.06942872 -0.0044420445 -0.12792641 -0.055401452 0.18658006 -0.11222431
0.15601185 -0.057477005 -0.017722353 -0.07785192 0.10313034 0.1167931 -0.007659645 -0.052478984
0.04544392 -0.027888129 0.001816805 -0.0024384349 -0.035248764 -0.033928756 -0.012661552 -0.06777361
-0.050173182 -0.017379958 0.023491329 0.010336144 0.13434505 -0.02588425 0.03186435 0.046085246
0.044710897 0.03044008 0.12403396 -0.13703504 -0.035216898 -0.0025956857 0.042747747 -0.034362424
-0.005649957 0.18175703 -0.04465946 -0.030796863 0.018744236 -0.008878793 -0.0031694632 0.03278839
-0.16857667 -0.026177848 0.24270412 0.29865733 -0.2037884 -0.051729087 0.26078543 -0.0696607
-0.36424506 -0.19085509 -0.04628664 0.05789947 -0.1900423 -0.013466945 0.14230463 -0.075635545
0.07460761 0.13194604 -0.03739556 -0.006697381 0.105285875 -0.09411507 0.061543833 0.0407925
-0.11972909 -0.0681824 0.07275376 0.0067142174 0.026695948 0.18652646 -0.013704357 -0.20114586
-0.51661885 -0.24023765 0.21596183 0.40278265 0.05187514 0.107120335 -0.05718718 -0.0050971354
-0.21507609 -0.0795031 0.27849978 0.050799403 0.0724012 -0.14215022 -0.0039778007 -0.08509435
0.10385114 -0.0043284656 0.008253927 -0.005502993 0.19529079 -0.19615026 -0.053234052 -0.1597605
-0.21432948 -0.1336744 -0.029676266 -0.006383232 -0.04703041 -0.15936996 -0.12896207 -0.051390562
-0.061815802 0.09367788 0.013589706 0.00889633 0.12083496 -0.15130508 -0.05618868 -0.17199911
0.14809982 0.054758586 0.13911715 0.07182787 0.049420718 0.081243224 0.056048386 0.15241931
0.11945609 0.08177904 0.2474968 -0.0313631 -0.15024889 0.11954121 -0.19349742 0.12190715
0.023549275 -0.010310811 -0.014203226 -0.024372527 0.19482931 -0.21346202 0.1619431 -0.23294374
0.10585407 0.056358583 0.017826984 -0.048441276 0.05987455 -0.0075274804 -0.10600039 0.093022816
00000000: dd71 0c3e 50a3 f03b 2560 72bd 36ab 8f3d
00000010: 1e8e 833d 2093 3bbe 9f28 18bd 7314 99bd
00000020: fc6a c73c 79c9 ddbd aa0b 56be c14c 0abe
00000030: 2e57 5bbe 055c 5abe 4e2d 3cbe dffa 8bbd
00000040: 3051 5cbd 994c ecbd 2e19 713d fc43 eebd
00000050: 6ff4 023e 23f8 4f3d f52e fdbd dca7 da3c
00000060: 0530 463d 274d 82bd 1c98 94bc e1bc 59bd
00000070: a377 81bc ec19 71bd 2b45 f7bc 2ba5 ea3d
00000080: 8f3a c4bd 7158 883c 9ed9 f73c 9603 983d
00000090: 82cb c13c e5f0 bd3d 8867 84bd 7b1c 49bd
000000a0: 741b da3d 728e 93bd cf9f 4d3d b2e7 b5bd
000000b0: b91f babc 5416 103d 500a aabd 66ce ddbd
000000c0: 8127 b73c d3ed 0abc bf39 15bd 1528 ed3d
000000d0: 1ff4 37bd 09df 2d3c 817a 273e 47fb 203d
000000e0: d65a 39be f473 83be 9e51 8b3e d331 9cbd
000000f0: 2aad 0fbe 3013 073e a93f 883c 23a7 50bd
00000100: cc5e 15be 6ea8 6ebd 597f 883c b890 603d
00000110: 586b 383d b956 c8bc 796a d0ba a5d0 25bd
00000120: 1973 54bd ac09 77bd 9437 c23d 8dfb 0e3e
00000130: c57b 72be 6b37 ce3d 160f b1bd 2819 2b3d
00000140: 7924 673c 6784 003e 9c05 e6bc 6164 3e3d
00000150: a8cb c4bc 067c 75bd 7291 9d3d 1d26 4c3d
00000160: 341b 0bbe d351 4dbc 54af ca3e f9e6 26be
00000170: 5d9d a5bc 05cc 133e 5725 213d 4b0d 71be
00000180: a4d1 de3d b488 a2be ab57 1c3d 08dc df3d
00000190: 16c1 efbd 497e 5d3d 2f76 8b3d ed24 2e3d
000001a0: f33d acbd 8eea 223a a530 8ebd 928e 91bb
000001b0: 24ff 02be a2ec 62bd d80e 3f3e dcd5 e5bd
000001c0: 92c1 1f3e 026d 6bbd 782e 91bc d470 9fbd
000001d0: 0036 d33d 3931 ef3d c2fd fabb 34f4 56bd
000001e0: 6723 3a3d a575 e4bc dc21 ee3a 26ce 1fbb
000001f0: 0261 10bd e1f8 0abd 6672 4fbc e4cc 8abd
00000200: 6582 4dbd 6a60 8ebc e370 c03c ee58 293c
00000210: c091 093e 350b d4bc 3184 023d e2c3 3c3d
00000220: c622 373d 7a5d f93c 8405 fe3d ea52 0cbe
00000230: 983f 10bd 611c 2abb 4318 2f3d 9dbf 0cbd
00000240: 4623 b9bb 841e 3a3e d7ec 36bd b449 fcbc
00000250: 838d 993c 5b78 11bc c5b6 4fbb 1e4d 063d
00000260: 5d9f 2cbe ed72 d6bc 6e87 783e 9de9 983e
00000270: e8ad 50be e1e1 53bd ab85 853e 45aa 8ebd
00000280: 547e babe 846f 43be 0f97 3dbd ff27 6d3d
00000290: 739a 42be 76a4 5cbc 4eb8 113e cfe6 9abd
000002a0: e0cb 983d dd1c 073e 162c 19bd b475 dbbb
000002b0: 1fa0 d73d 67bf c0bd 6315 7c3d 0916 273d
000002c0: 8634 f5bd 37a3 8bbd ecff 943d f002 dc3b
000002d0: 76b1 da3c cb00 3f3e 3d88 60bc 2ef9 4dbe
000002e0: 2241 04bf dc00 76be 1925 5d3e 8739 ce3e
000002f0: 077b 543d e861 db3d 1b3d 6abd df05 a7bb
00000300: e83c 5cbe 85d2 a2bd 8697 8e3e 0913 503d
00000310: 1547 943d d48f 11be 3658 82bb f245 aebd
00000320: e8af d43d cdd5 8dbb 7b3b 073c 7352 b4bb
00000330: 4ffa 473e 9ddb 48be f30b 5abd 4298 23be
00000340: 3079 5bbe f1e1 08be a41b f3bc 6e2a d1bb
00000350: f6a2 40bd e131 23be a20e 04be e97e 52bd
00000360: 9132 7dbd 30da bf3d 5ca7 5e3c eac1 113c
00000370: 5278 f73d b8ef 1abe 1a26 66bd 8920 30be
00000380: 7ba7 173e 8a4a 603d ba74 0e3e 7e1a 933d
00000390: 616d 4a3d d962 a63d fe92 653d cf13 1c3e
000003a0: 65a5 f43d c57b a73d cd6f 7d3e 9876 00bd
000003b0: d8da 19be 06d2 f43d 3024 46be 75aa f93d
000003c0: 69ea c03c adee 28bc a6b4 68bc e5a8 c7bc
000003d0: 5681 473e ca95 5abe 69d4 253e ce88 6ebe
000003e0: 05ca d83d 42d8 663d e509 923c 5c6a 46bd
000003f0: 043f 753d 15a9 f6bb bc16 d9bd bf82 be3d

bias f4 [32]
-0.15789036 -0.13630956 -0.88197446 -0.52779347 -0.08703228 -0.30033562 0.043483764 0.024801405
-0.06387242 0.14093627 -0.2547341 -0.05476329 -0.45705494 0.05967008 -0.007570336 -0.7783261
0.07927936 -0.036025953 -0.47176433 -0.19134241 -0.36296612 -0.073267564 -0.020536637 -0.097816594
0.38078177 0.013403389 -0.4212348 -0.03023612 0.15079413 -0.8248771 0.15021397 -0.16308461
00000000: 03ae 21be bc94 0bbe 14c9 61bf 791d 07bf
00000010: fb3d b2bd 97c5 99be 081c 323d 512c cb3c
00000020: 8bcf 82bd 9951 103e 826c 82be 794f 60bd
00000030: 1b03 eabe 9d68 743d 9510 f8bb 6140 47bf
00000040: 385d a23d f38f 13bd 188b f1be 44ef 43be
00000050: b2d6 b9be 4e0d 96bd 733c a8bc 1154 c8bd
00000060: d4f5 c23e e399 5b3c 16ac d7be bdb1 f7bc
00000070: c769 1a3e 252b 53bf b1d1 193e a7ff 26be

weight f4 [32, 32, 3, 3]
0.04751815 0.086117014 0.041817684 0.020851044 -0.0096498635 0.041108876 0.078513965 0.115986586
0.06356575 -0.64312357 0.38898852 -0.28505284 -0.17340563 0.22524092 -0.08807025 -0.2913557
0.26563093 -0.12082276 0.6386412 0.89841366 0.60423666 0.28973553 0.09001466 0.16697967
0.3292076 0.11020738 0.031861622 -0.060732998 -0.035880942 -0.03475291 -0.0576325 0.17259514
0.10211271 0.06764676 -0.032639824 -0.12502597 -0.04092575 0.008247619 -0.1016655 -0.09433524
-0.043114338 -0.16236712 -0.05291406 -0.014990755 -0.06141544 0.06523845 0.019853821 0.0474082
-0.080075905 -0.059540074 -0.014533051 -0.013891751 -0.018517282 0.0026447265 0.07584342 -0.35978454
-0.029657155 0.031366218 0.0096445605 -0.108979866 -0.03181312 -0.11324714 -0.0242016 0.08001169
0.04043664 0.058281388 -0.04665959 -0.06867125 -0.01775049 -0.00974644 0.0064931917 -0.025249455
-0.053162955 0.21704318 -0.082174495 0.068403624 0.16010696 0.033628665 0.065897346 0.043588717
-0.04069236 0.06358482 -0.090927176 -0.0033125975 -0.13546789 -0.16512182 -0.12864622 -0.012423253
-0.02464924 -0.04709155 0.02724012 -0.065036684 -0.009038918 0.06173743 0.12314515 0.042497892
0.057437044 -0.041537534 -0.0057529695 -0.013445735 -0.022954501 -0.0257181 0.026812281 -0.067468725
-0.051066402 0.039476965 0.027279893 0.0028617955 -0.015494869 0.3229315 -0.041083947 -0.14908727
0.071117416 0.015114488 -0.2432034 -0.07437171 -0.1052793 0.05955436 0.097373426 -0.008980611
0.11527148 0.48778477 0.096110985 0.0018248082 -0.12535693 -0.016358053 0.10588074 0.3858543
0.12375274 -0.015473909 -0.0376308 -0.0025894863 -0.0236016 0.017311808 0.045201607 0.0008767274
0.025455846 -0.050266996 0.017940953 0.0794438 0.034863386 -0.0056776437 -0.016679911 0.021253027
-0.012737408 -0.3284191 -0.066636056 -0.008147953 0.07859513 -0.074682966 -0.10944555 -0.23358577
-0.03341543 -0.013656012 0.034762956 -0.016299956 0.011131775 0.10859366 -0.0032634656 -0.026493696
-0.013838896 0.0034759257 -0.0056430725 0.37592933 0.1337189 0.0021551773 0.24961911 -0.008843773
-0.14531952 0.18531042 -0.055007327 0.11361835 0.095283404 0.040420882 0.07979961 0.111885644
0.055224776 -0.13893194 0.05929513 0.005650064 -0.003123001 0.0940367 -0.018088715 -0.05627117
0.04768814 -0.10848279 -0.024709145 0.108469896 -0.0003173947 -0.11510763 0.003168075 -0.009618385
-0.053645074 0.16873494 -0.138477 0.038285498 -0.106099255 0.09702923 -0.12333707 -0.007505842
-0.07146404 -0.12885164 0.0054668295 -0.088791594 -0.063496776 0.058187097 0.109023035 -0.024623401
-0.03021685 -0.031158024 -0.06024486 0.0962817 0.04898967 0.026947826 0.08374665 0.012538613
-0.14788623 -0.021544848 -0.11905689 0.15736517 0.17050554 0.15416847 -0.27958342 0.06507015
-0.28653303 -0.044853084 -0.06788142 -0.079290114 0.17433093 -0.15661345 0.15066947 -0.010718503
0.11799772 0.06843067 -0.07580991 0.11033451 -0.014784015 0.05419176 0.051289845 0.012056714
-0.00371738 -0.04967725 -0.003246501 0.024845203 -0.049144946 0.08206888 -0.055545114 -0.020066483
-0.001769223 0.043206587 -0.02946748 0.0035175814 -0.008917256 -0.009573329 -0.018619036 -0.07286994
00000000: 64a2 423d 1e5e b03d 0549 2b3d cfcf aa3c
00000010: 761a 1ebc c861 283d eecb a03d 608a ed3d
00000020: c32e 823d bfa3 24bf 8129 c73e 72f2 91be
00000030: 3f91 31be 8ea5 663e 2d5e b4bd 932c 95be
00000040: c700 883e ec71 f7bd fd7d 233f 70fe 653f
00000050: 41af 1a3f 3758 943e 9b59 b83d b8fc 2a3e
00000060: e68d a83e 68b4 e13d 5581 023d 2ac3 78bd
00000070: e5f7 12bd 1159 0ebd 0e10 6cbd c8bc 303e
00000080: 7820 d13d 628a 8a3d 56b1 05bd cf06 00be
00000090: c2a1 27bd 0521 073c 0036 d0bd d632 c1bd
000000a0: a998 30bd 9143 26be 6abc 58bd c99b 75bc
000000b0: c28e 7bbd bd9b 853d 7ba4 a23c 1a2f 423d
000000c0: d6fe a3bd 4be0 73bd 091c 6ebc 3a9a 63bc
000000d0: 8eb1 97bc 2653 2d3b cc53 9b3d ae35 b8be
000000e0: 90f3 f2bc dd79 003d 3804 1e3c d630 dfbd
000000f0: 794e 02bd 1eee e7bd 6f42 c6bc 2bdd a33d
00000100: e4a0 253d 77b8 6e3d 201e 3fbd 83a3 8cbd
00000110: 7a69 91bc 88af 1fbc d7c4 d43b f2d7 cebc
00000120: 66c1 59bd 9140 5e3e 1a4b a8bd 3317 8c3d
00000130: 14f3 233e 36be 093d 30f5 863d 158a 323d
00000140: 08ad 26bd c238 823d 0738 babd 2a18 59bb
00000150: 18b8 0abe b215 29be d6bb 03be e68a 4bbc
00000160: 34ed c9bc 12e3 40bd ac26 df3c f431 85bd
00000170: f817 14bc 63e0 7c3d 8633 fc3d 4512 2e3d
00000180: 1b43 6b3d 4323 2abd 6883 bcbb 804b 5cbc
00000190: 140b bcbc c4ae d2bc 6ea5 db3c 0b2d 8abd
000001a0: 012b 51bd 99b2 213d 157a df3c f68c 3b3b
000001b0: 31de 7dbc 4757 a53e a447 28bd 55aa 18be
000001c0: 02a6 913d c2a2 773c 500a 79be 3250 98bd
000001d0: ac9c d7bd 46ef 733d b86b c73d 6a23 13bc
000001e0: 7413 ec3d edbe f93e d6d5 c43d 672e ef3a
000001f0: 915d 00be 5301 86bc 00d8 d83d b28e c53e
00000200: 1472 fd3d 4786 7dbc c122 1abd 5fb4 29bb
00000210: 2558 c1bc 7ed1 8d3c 5225 393d 2ed4 653a
00000220: c788 d03c c4e4 4dbd e8f8 923c 6eb3 a23d
00000230: e9cc 0e3d 870b babb 4fa4 88bc d41a ae3c
00000240: 90b0 50bc 8c26 a8be 7c78 88bd fe7e 05bc
00000250: 7cf6 a03d 62f3 98bd fd24 e0bd 1c31 6fbe
00000260: 9ede 08bd 77bd 5fbc 9a63 0e3d 7c87 85bc
00000270: 0c62 363c 5a66 de3d dedf 55bb 4f09 d9bc
00000280: 89bc 62bc 5bcc 633b 86e9 b8bb cf79 c03e
00000290: 9bed 083e e03d 0d3b 279c 7f3e 79e5 10bc
000002a0: a4ce 14be 04c2 3d3e 5d4f 61bd bdb0 e83d
000002b0: f223 c33d 5e90 253d fa6d a33d 4d24 e53d
000002c0: 6033 623d 2d44 0ebe 73df 723d 2c24 b93b
000002d0: 43ab 4cbb 5096 c03d c92e 94bc 997c 66bd
000002e0: a454 433d 3a2c debd d56a cabc 7725 de3d
000002f0: ff67 a6b9 8dbd ebbd 7b9f 4f3b 6e96 1dbc
00000300: f0ba 5bbd dac8 2c3e eacc 0dbe 41d1 1c3d
00000310: 914a d9bd 43b7 c63d 2598 fcbd 91f3 f5bb
00000320: bd5b 92bd aff1 03be 1723 b33b 5ed8 b5bd
00000330: 990a 82bd 9855 6e3d 7847 df3d 04b7 c9bc
00000340: 5489 f7bc 1d3f ffbc 50c3 76bd 572f c53d
00000350: 64a9 483d b0c1 dc3c 5d83 ab3d c16e 4d3c
00000360: 7d6f 17be d27e b0bc 19d4 f3bd 5624 213e
00000370: 0199 2e3e 57de 1d3e 8f25 8fbe 8043 853d
00000380: 75b4 92be deb7 37bd 6a05 8bbd db62 a2bd
00000390: cf83 323e 475f 20be 1949 1a3e a99c 2fbc
000003a0: caa8 f13d 6125 8c3d 3a42 9bbd 0ff7 e13d
000003b0: a738 72bc 2ef8 5d3d 4d15 523d 8689 453c
000003c0: 4a9f 73bb 5f7a 4bbd 40c3 54bb 2b88 cb3c
000003d0: 364c 49bd bb13 a83d 4683 63bd 7762 a4bc
000003e0: 46e5 e7ba 64f9 303d c965 f1bc 3987 663b
000003f0: af19 12bc 74d9 1cbc f386 98bc d63c 95bd

bias f4 [32]
-0.48779812 0.017039232 -0.48983154 -0.0039221477 0.038850788 -0.71773833 -0.18096755 0.021223702
-0.12844159 -0.025479436 0.028475378 -0.115957454 -0.21348086 0.027784146 -0.23067915 -0.017176429
0.026465707 -0.9631297 -0.24902005 -0.48019776 -0.3805714 0.0017742218 -1.1336083 -0.5068686
-0.9507683 -0.5399534 0.057940304 -0.08960057 -0.18937065 -0.42207104 0.11539996 -0.41135383
00000000: adc0 f9be dc95 8b3c 33cb fabe 5c85 80bb
00000010: 0122 1f3d b3bd 37bf 8f4f 39be 54dd ad3c
00000020: 3186 03be 40ba d0bc 3245 e93c 1a7b edbd
00000030: ba9a 5abe 949b e33c 2837 6cbe 95b5 8cbc
00000040: 9cce d83c ab8f 76bf 1dff 7ebe 7bdc f5be
00000050: 41da c2be 018d e83a 141a 91bf 24c2 01bf
00000060: 8d65 73bf 633a 0abf d052 6d3d 8180 b7bd
00000070: 61ea 41be b219 d8be d056 ec3d f89c d2be

weight f4 [32, 32, 5, 5]
-0.016511606 0.03301262 -0.10227071 -0.10269879 0.005480471 -0.03974776 0.1646686 -0.12911966
0.043088898 -0.07401128 0.05545495 0.22451173 -0.025213964 -0.09326656 0.018316314 -0.029897375
-0.099609725 0.011746996 0.054215163 9.715479e-05 -0.046036404 0.033882942 -0.019795766 -0.020343274
-0.038687654 -0.009292508 -0.044622947 -0.093981065 0.07059247 -0.02984506 -0.034999687 0.119821385
0.0021519996 -0.040589124 -0.07582999 0.042536337 -0.19124845 0.17713667 -0.048590124 0.06794707
-0.0223948 0.15487587 -0.05491643 0.03808923 -0.1006802 0.013739124 -0.003357788 -0.06925639
0.052375928 -0.054733578 0.04607213 0.09567273 0.026189348 0.003230015 -0.02376983 -0.043373305
0.08013731 -0.01803174 0.074519284 0.06764728 0.0070792837 0.1365031 0.062736474 0.05963604
-0.024340633 -0.036823273 0.018237643 -0.0013635235 0.069401376 -0.02397211 0.04980386 0.051081847
0.105923556 0.19385688 -0.029667614 0.023161052 0.018852564 -0.0026172488 -0.012132641 0.03699361
-0.0108353095 -0.0001686146 -0.05636565 -0.040624592 0.023495207 0.043512374 0.0031588022 0.0069072726
-7.519486e-05 -0.0264451 0.016637674 -0.005580332 0.046949286 0.018302057 -0.021819973 -0.03284291
-0.008039777 0.0010916316 0.0027983591 -0.0011510539 0.013365965 -0.03797389 0.041695613 -0.056311645
-0.028386056 -0.06692116 -0.04827808 -0.020487834 -0.111325674 -0.010362435 -0.096412525 0.0020011775
0.013606617 -0.014131211 0.0059325052 -0.025154365 -0.07786992 0.045547653 0.019317307 -0.08584808
0.015278666 -0.048406113 0.17039366 -0.026107382 0.071075924 0.07257178 0.054629028 0.026457777
0.06326137 0.022332048 0.054777503 0.08869044 -0.09137188 -0.2629623 0.12563498 -0.017963933
-0.09230888 0.004246552 0.14893934 -0.08629201 0.08550039 -0.028198097 0.31981927 0.052927434
0.09587775 0.046286725 0.02328928 -0.13905136 0.08236704 0.036121476 0.021270465 -0.059428126
0.07325516 0.021618307 0.024781443 -0.040850166 -0.17188402 0.06630844 0.10606333 0.051759962
0.16677855 -0.4441247 0.021326186 0.09104215 0.25231135 -0.08659942 0.15717538 -0.03825404
0.0058275796 -0.08453079 0.15430336 0.1551961 -0.16982578 -0.130365 0.13068971 0.019762907
0.14393383 -0.04764449 -0.022024892 0.044307638 -0.053895865 0.009777981 -0.085800886 -0.07556416
0.014019376 0.049074378 -0.15882201 0.009681098 0.11785119 -0.014097673 -0.06221088 0.09830983
-0.0692749 -0.022026459 -0.00839208 -0.015542119 0.022408448 0.00065296266 -0.016319795 0.10712934
-0.1015815 -0.1036718 -0.12009458 -0.0071139126 -0.044296823 -0.07486196 -0.061205875 -0.13634871
-0.15985924 0.17585446 0.08923562 0.19873577 0.11047441 -0.07631179 0.10319497 0.12392816
0.08419022 0.2091239 0.08155908 0.1611776 -0.09548652 0.098454386 -0.051777955 0.22573408
-0.017212644 -0.009490671 -0.014290939 0.003205537 0.017903732 -0.0385082 0.01062688 0.018568985
0.05805294 0.02268308 -0.01647646 -0.011814846 -0.0069714184 -0.01304014 0.004058644 0.009567012
-0.001964387 -0.019023431 0.0071960962 -0.04727458 0.06345144 0.014951326 0.052755103 -0.032657173
-0.028159924 -0.020042486 0.008959062 0.04874694 -0.05138765 -0.0071949954 -0.04680115 0.016455596
00000000: 5943 87bc 3e38 073d 4e73 d1bd be53 d2bd
00000010: 8695 b33b 8cce 22bd e39e 283e f237 04be
00000020: fc7d 303d 3a93 97bd bb24 633d 67e6 653e
00000030: 848d cebc 8a02 bfbd 180c 963c 57eb f4bc
00000040: 2f00 ccbd 7976 403c b810 5e3d 95bf cb38
00000050: ab90 3cbd d7c8 0a3d bb2a a2bc f0a6 a6bc
00000060: f276 1ebd 9a3f 18bc 8dc6 36bd 2579 c0bd
00000070: c992 903d a17d f4bc d55b 0fbd ea64 f53d
00000080: 9008 0d3b c840 26bd c14c 9bbd 953a 2e3d
00000090: a2d6 43be 5163 353e 7006 47bd d527 8b3d
000000a0: 4d75 b7bc c897 1e3e 0df0 60bd 7403 1c3d
000000b0: 6c31 cebd 101a 613c 560e 5cbb 4bd6 8dbd
000000c0: 2488 563d 5130 60bd 21b6 3c3d 10f0 c33d
000000d0: 0b8b d63c a9ae 533b f2b8 c2bc 35a8 31bd
000000e0: 081f a43d 4db7 93bc 919d 983d a88a 8a3d
000000f0: 56f9 e73b 78c7 0b3e fb7b 803d ec44 743d
00000100: 0266 c7bc 00d4 16bd 1c67 953c 42b8 b2ba
00000110: 4f22 8e3d 2961 c4bc 22ff 4b3d 333b 513d
00000120: 73ee d83d 6b82 463e 7f09 f3bc 3fbc bd3c
00000130: b170 9a3c 2686 2bbb fcc7 46bc 9d86 173d
00000140: 9586 31bc 23ce 30b9 abdf 66bd f965 26bd
00000150: 0579 c03c 083a 323d e803 4f3b 6756 e23b
00000160: efb1 9db8 65a3 d8bc bb4b 883c 38db b6bb
00000170: e54d 403d 32ee 953c cdbf b2bc 4a86 06bd
00000180: 45b9 03bc 1415 8f3a ad64 373b f6de 96ba
00000190: ecfc 5a3c 828a 1bbd 05c9 2a3d 0aa7 66bd
000001a0: e089 e8bc f60d 89bd 3cbf 45bd 1ad6 a7bc
000001b0: b7fe e3bd 34c7 29bc ee73 c5bd 3026 033b
000001c0: 4aee 5e3c 9886 67bc 7665 c23b 8710 cebc
000001d0: 447a 9fbd 2d90 3a3d 543f 9e3c 1ed1 afbd
000001e0: 5f53 7a3c 7d45 46bd ad7b 2e3e 26df d5bc
000001f0: 4190 913d 83a0 943d b0c2 5f3d fbbd d83c
00000200: 2d8f 813d b3f1 b63c 605e 603d 55a3 b53d
00000210: 2e21 bbbd ffa2 86be 75a6 003e 1929 93bc
00000220: 700c bdbd a926 8b3b 8e83 183e deb9 b0bd
00000230: d41a af3d b2ff e6bc 5abf a33e 70ca 583d
00000240: 8e5b c43d 2697 3d3d 29c9 be3c 7b63 0ebe
00000250: 0db0 a83d 1df4 133d 663f ae3c e86a 73bd
00000260: cd06 963d e018 b13c 7402 cb3c 8152 27bd
00000270: 5d02 30be b8cc 873d bb37 d93d 4102 543d
00000280: ffc7 2a3e 5064 e3be 41b4 ae3c 4f74 ba3d
00000290: f42e 813e 095b b1bd 95f2 203e 45b0 1cbd
000002a0: 48f5 be3b 7b1e adbd b301 1e3e baeb 1e3e
000002b0: cfe6 2dbe 677e 05be 86d3 053e d2e5 a13c
000002c0: 6463 133e de26 43bd 8c6d b4bc ed7b 353d
000002d0: e9c1 5cbd d333 203c 60b8 afbd 62c1 9abd
000002e0: 86b1 653c 3702 493d 3da2 22be 789d 1e3c
000002f0: f75b f13d edf9 66bc d6d0 7ebd aa56 c93d
00000300: 00e0 8dbd d570 b4bc ef7e 09bc 5fa4 7ebc
00000310: ec91 b73c 952b 2b3a 17b1 85bc a166 db3d
00000320: f609 d0bd e151 d4bd 26f4 f5bd d31b e9bb
00000330: 9670 35bd 3a51 99bd 03b3 7abd ff9e 0bbe
00000340: 24b2 23be 3113 343e 2ac1 b63d 6481 4b3e
00000350: 6840 e23d 5b49 9cbd e257 d33d 0cce fd3d
00000360: ec6b ac3d 9324 563e 7208 a73d be0b 253e
00000370: 708e c3bd 74a2 c93d 1f15 54bd d626 673e
00000380: 8801 8dbc c27e 1bbc 8b24 6abc fd13 523b
00000390: d9aa 923c c6ba 1dbd 5e1c 2e3c fc1d 983c
000003a0: ebc8 6d3d ded1 b93c a4f9 86bc 0e93 41bc
000003b0: 7f70 e4bb 50a6 55bc 60fe 843b f5be 1c3c
000003c0: f2bc 00bb 07d7 9bbc 3bcd eb3b fda2 41bd
000003d0: d4f2 813d 68f6 743c bc15 583d 87c3 05bd
000003e0: a4af e6bc 2430 a4bc 08c9 123c dfaa 473d
000003f0: db7b 52bd ffc3 ebbb 90b2 3fbd e3cd 863c

bias f4 [32]
-0.0060913623 0.027790256 0.023016557 -0.0015561044 -0.024314087 0.005273328 0.082330815 -0.028580738
-0.013940417 0.31480998 0.00900479 -0.032056563 -0.012583639 0.10047736 -0.0025739337 -0.009477823
0.17029901 0.067736514 -0.007490451 -0.039457113 -0.0057395594 -0.0041583767 -0.0074577103 -0.0035022497
-0.013775366 0.013100664 0.005344146 -0.029180223 -0.15449302 -0.052178428 0.016164169 -0.019087782
00000000: 0d9a c7bb 64a8 e33c 388d bc3c 33f6 cbba
00000010: 562e c7bc e2cb ac3b 0f9d a83d 2722 eabc
00000020: 5966 64bc c62e a13e d488 133c be4d 03bd
00000030: 9b2b 4ebc 13c7 cd3d 71af 28bb df48 1bbc
00000040: dd62 2e3e 71b9 8a3d 7572 f5bb c89d 21bd
00000050: ea12 bcbb fe42 88bb cf5f f4bb 0086 65bb
00000060: 13b2 61bc 2ba4 563c f21d af3b 5d0b efbc
00000070: 6b33 1ebe 0cb9 55bd b86a 843c fb5d 9cbc
